model/model.pth (torch, 17216 bytes, 4 tensors)

linear1.weight f4 [256, 11]
000000 0b dd 76 be 94 09 48 be a0 7a 4e be 41 ae 12 3f
       -0.24107759 -0.19534904 -0.20163965 0.5729714
000010 9e ec 03 bf 1d f2 12 3f 50 ae ed be 53 f0 33 3e
       -0.51532924 0.57400686 -0.46422052 0.17572145
000020 05 d5 51 bf 6e 52 80 3e a1 68 4e bf 0a e4 d3 be
       -0.81965667 0.2506289 -0.806284 -0.41384917
000030 e8 3d e8 bd 37 0f d4 bd 46 89 d8 3e db 9c d8 3e
       -0.11339933 -0.103544645 0.4229223 0.4230717
000040 56 af 9b 3e b9 55 04 3f 58 3b fe be 70 8a 9a be
       0.30407208 0.516933 -0.4965465 -0.30183744
000050 a7 6c d7 be 56 89 ae be 6a 13 ab bd 96 27 5d 3f
       -0.42075083 -0.34089154 -0.08353312 0.8638853
000060 3f 94 05 be da d2 d2 bd ff b6 a8 3e d7 85 d3 3e
       -0.13044833 -0.10294123 0.32952115 0.4131305
000070 ff 1a 00 bd 3f d6 62 3e c3 25 7f be 43 c9 8b be
       -0.031275745 0.22152041 -0.24916749 -0.27301988
000080 18 f0 f4 bd 79 bd 40 3f 33 a0 59 3d de 3d 0d bf
       -0.11959857 0.7528911 0.053131294 -0.55172527
000090 02 ea d4 3d b4 fc e7 3e b3 20 ef 3e b2 38 f2 be
       0.10396196 0.45309985 0.46704635 -0.4730888
0000a0 5b a8 0f be 8b e6 01 bf e8 02 0c bf c3 cb f8 3e
       -0.14029066 -0.50742406 -0.54691935 0.48592958
0000b0 e2 2f 9a 3d ef 69 97 3e 2b 21 12 bd 40 cc 01 bf
       0.07528664 0.29573008 -0.035676163 -0.50702286
0000c0 06 ab f7 3e e3 8e bc 3e 8c 41 a2 be 0b 93 58 3e
       0.48372668 0.36827764 -0.31690633 0.21149842
0000d0 37 f3 69 bf 9c dc 8f 3d 74 aa 12 bf 8f 45 05 3b
       -0.9138674 0.070245 -0.5729134 0.002033565
0000e0 11 e1 e9 3d ff ea e0 3e 04 87 f3 be 40 43 50 bd
       0.11419881 0.43929288 -0.47563946 -0.050845385
0000f0 0b cb 30 be 20 25 63 3c 7a 62 78 be 8e af c5 be
       -0.17264955 0.013863832 -0.24256316 -0.386105
000100 69 e0 0f 3e e6 48 28 3e e1 99 c9 3e eb a4 2d 3d
       0.1405045 0.16434059 0.39375213 0.042393606
000110 e3 cc 53 3c 63 dc 91 bd d9 20 e5 be ef c8 5e 3f
       0.012927267 -0.071221136 -0.44751623 0.8702535
000120 2c 0a 0a 3f 20 1e 78 3e 87 b7 1e 3f dd b9 2b bf
       0.5392177 0.24230242 0.6199879 -0.6708048
000130 09 2b b6 be d5 9a 9f 3d c3 74 a9 be b8 57 2c 3f
       -0.35579708 0.07793204 -0.33096895 0.6732135
000140 d8 8c 96 be f3 ab d8 3e 28 5d 7a 3e 18 b2 d1 be
       -0.2940433 0.42318687 0.24449599 -0.40956187
000150 4b b2 b8 3d 81 d9 58 be f7 01 a3 be 10 c2 bd 3e
       0.09018382 -0.21176721 -0.31837437 0.3706212
000160 ec 6a b8 be c8 7c d5 be a7 fd ea 3e f0 ee e6 3e
       -0.36019075 -0.41696763 0.45896646 0.4510417
000170 6d 98 98 3e 08 27 2f bf d4 d4 08 bf b3 4b a5 3e
       0.29803792 -0.6841893 -0.5344975 0.32284316
000180 b8 f9 e9 3e e6 19 1a bf db 6f 43 bf ff 8f c7 bd
       0.45698333 -0.6019577 -0.7634255 -0.09744262
000190 09 95 6f 3e 80 01 82 bf 2f 19 7d 3b 64 60 db be
       0.23396696 -1.0156708 0.0038619747 -0.42846978
0001a0 e0 79 28 be d3 3f 9a be 3d 03 20 3d 86 88 26 3f
       -0.16452742 -0.3012682 0.03906559 0.6505207
0001b0 ae a9 b3 3e 4b 6c db 3e e1 1e ca be f5 cd 23 3f
       0.35090393 0.42856058 -0.39476684 0.6398614
0001c0 36 1d b3 be b2 00 b1 3e c5 94 dd 3e 74 be b4 3e
       -0.34983224 0.34570843 0.43277565 0.35301554
0001d0 b9 c2 97 be c9 26 1f 3d de 81 00 be 82 a4 6b bc
       -0.2964075 0.038855348 -0.1254954 -0.014382483
0001e0 29 c5 11 bf 64 ce 9c be 32 80 eb 3e 49 95 4b bf
       -0.5694147 -0.30626214 0.45996243 -0.79524666
0001f0 50 88 7d 3e 1a f2 85 bd f1 33 c2 be 32 d8 0b 3d
       0.2475903 -0.06540318 -0.37930253 0.034141727
000200 7e 7d e5 bd 60 f5 8c 3e c6 14 c7 be 7b fd c7 3d
       -0.11205576 0.27530956 -0.38883036 0.097651444
000210 0c dd aa 3e 8c 14 ac bd b0 a2 c0 3e da fb 88 be
       0.3337177 -0.084023565 0.3762412 -0.26754647
000220 f9 3f 37 be 45 45 f0 bd 90 49 82 be f5 e6 e2 3e
       -0.17895497 -0.11731962 -0.2544675 0.4431683
000230 51 a3 06 3f c3 50 f0 3e 60 24 18 3f 7f 03 da 3d
       0.5259295 0.46936616 0.59430504 0.10645198
000240 1a 28 db be 72 44 44 bf b4 c5 34 be 1d 3c 8f 3e
       -0.42804033 -0.7666694 -0.17653543 0.2797555
000250 8c bc 46 3f 8e e7 21 bf f1 c6 66 be dd d5 5f be
       0.7763145 -0.6324395 -0.22536828 -0.21858926
000260 cf 33 1a 3f ef 6a 55 bf 0a e5 ad bd 16 ce 46 bf
       0.60235304 -0.8336629 -0.08490951 -0.7765821
000270 dd 18 20 3f 91 cc 83 be 3e 4e 68 be 7f 67 bd 3c
       0.6253794 -0.2574201 -0.22686097 0.02312064
000280 35 e7 0f 3d 1f 59 69 3e 00 be e8 3e 83 3f ac 3e
       0.035132606 0.22787903 0.45457458 0.33642206
000290 60 50 bd 3e 88 4b 1d 3f 3d 0e 44 3e 5f cf 01 bf
       0.36975384 0.61443377 0.19146056 -0.5070705
0002a0 c7 2b be be e1 e5 25 bd af af be 3e 35 76 d2 3e
       -0.37142774 -0.040502433 0.3724341 0.4110581
0002b0 81 6a 05 3f 66 ba 8b 3e 0a 1a c5 be 70 13 ad be
       0.5211564 0.27290648 -0.3849643 -0.33803892
0002c0 5a 47 56 be 3d f0 9c be 32 25 b4 3d a0 9f dd 3e
       -0.20925656 -0.30652037 0.08796157 0.43285847
0002d0 81 6d 50 3e e5 78 52 3e b0 e3 66 3e 0a 0a d4 be
       0.20354272 0.2055393 0.22547793 -0.4141391
0002e0 92 2d ad be 5b 54 24 bd db 08 2b be 8f d5 40 3f
       -0.3382383 -0.04011951 -0.16702597 0.75325865
0002f0 81 22 14 3d 5a d4 88 3d b0 02 a3 be d0 ea 00 3f
       0.036165718 0.06681128 -0.31837988 0.50358295
000300 4c 4e 14 3d 2c 16 59 3f c9 d5 1d 3f 06 be 7f be
       0.036207482 0.84799457 0.61654335 -0.24974832
000310 dc cf 68 3e 93 af 10 bf d2 ad d0 bd 20 cd 7b 3d
       0.22735542 -0.56517905 -0.101894036 0.06147492
000320 3e ca 87 bd 4f e9 07 be 50 37 4e 3d 7c 2c c2 3d
       -0.066303715 -0.13272594 0.05034572 0.09481141
000330 08 e2 0c 3d f2 76 03 3e 60 a3 34 bc 78 91 62 bd
       0.034395248 0.12838343 -0.01102528 -0.05531451
000340 21 9f 97 be d9 68 31 be 4b b9 89 3f 1d 65 f3 bd
       -0.29613593 -0.17325152 1.0759672 -0.1188452
000350 9b bb 1f be cc 72 2a 3e 29 60 02 bf be 50 0c 3d
       -0.1559891 0.16645354 -0.5092798 0.03425669
000360 4b b1 ec 3d a4 49 08 3f c5 a6 7f 3e 3a ee 6f be
       0.115572535 0.53237367 0.24965961 -0.2343072
000370 64 5a 43 3d a3 fd 2f bf dc 56 75 3e 3b b1 5f bd
       0.047693625 -0.68746394 0.23958915 -0.05461238
000380 f4 9f 50 be ff 64 a3 3e 2c 58 c1 be 5c fa 64 bd
       -0.20373517 0.3191299 -0.37762582 -0.055902824
000390 3d 2e 42 3e 68 99 85 be 95 dd d0 3e 26 9b 7b 3e
       0.18962951 -0.26093602 0.40794054 0.24570903
0003a0 1e 48 c1 3e b5 22 6b bf 12 17 4b be 9e 42 6a 3e
       0.37750334 -0.91849834 -0.1983302 0.22876975
0003b0 08 42 ae be 3a 63 0e 3e e2 38 6a 3e 8b d9 6f be
       -0.34034753 0.1390504 0.22873262 -0.2342283
0003c0 9a c6 01 3f 7a c2 db 3d d0 79 01 bf c7 ad ef 3e
       0.50693667 0.10730453 -0.50576496 0.4681227
0003d0 dc ea 2f be e6 2f e9 be 63 22 fd be 8f 52 27 be
       -0.17179435 -0.45544356 -0.49440297 -0.16340087
0003e0 aa 94 0a 3c d3 ff 5d 3d 08 93 63 bd 2c 13 57 3e
       0.008458296 0.05419905 -0.05556014 0.21003407
0003f0 1a 80 ca 3e fc 65 ae be e7 92 a3 3b b6 e3 cc bb
       0.3955086 -0.34062183 0.0049918774 -0.006252731

linear1.bias f4 [256]
000000 15 9c 6e 3e 60 11 ba 3f 43 7b 4b be 9f fa bf bc
       0.23301728 1.4536552 -0.1987124 -0.023434935
000010 b3 64 ee 3d 9d 28 7c be b9 27 4a be 7c fe f2 bd
       0.116403006 -0.24624868 -0.19741715 -0.11864945
000020 17 2a 9d 3e 13 8a ab be 1f 70 02 3f 48 2e 84 be
       0.30696175 -0.3350378 0.50952333 -0.2581656
000030 14 de a3 be 84 f1 89 3b 97 f0 c9 bd 6a 85 74 be
       -0.3200537 0.004209699 -0.09860342 -0.23879018
000040 b6 36 73 3f dc ab ad be 59 3c 99 be 6c a1 80 bd
       0.9500536 -0.3392018 -0.29928854 -0.06280789
000050 c5 6a 92 be c3 d6 fe be 9c 33 b6 bd 3c b5 2c 3d
       -0.28597084 -0.49773225 -0.088965625 0.042165026
000060 af da 3b 3e cd 1d 7b 3e 75 57 2f be d2 ab cc 3e
       0.1834514 0.24523087 -0.17123206 0.39974838
000070 2d d3 3f be ac 03 87 3e 40 22 16 bf 17 d6 e6 bd
       -0.18732901 0.2636999 -0.5864601 -0.11271303
000080 2c 25 ca be 7b bc 8c 3c 70 16 5e 3d d5 12 8d bd
       -0.39481485 0.017179718 0.054220617 -0.068883575
000090 19 e5 bb be 63 8a 15 bd 5a 5b 72 be ef 28 16 3f
       -0.36698225 -0.03650893 -0.2366766 0.5865621
0000a0 43 4c 3f bc b6 47 95 3d 16 83 0e 3f 3a e0 d8 be
       -0.011675897 0.072890684 0.5566877 -0.4235857
0000b0 ae bc 4f 3f 8c fd b7 bd 50 5e 8a be 58 c6 c0 be
       0.8114728 -0.08983907 -0.2702508 -0.37651324
0000c0 13 93 a9 3f 4b d4 52 3e e2 03 d8 bd 49 37 a7 be
       1.3248008 0.20588796 -0.105476156 -0.32659367
0000d0 75 70 e7 3e da 22 fc be 37 30 98 bc ce 67 6d 3e
       0.45202985 -0.4924534 -0.018577678 0.2318413
0000e0 71 21 ab 3b 09 62 b0 be b7 41 f2 bc 13 18 14 3f
       0.0052224924 -0.34449795 -0.02957235 0.57849234
0000f0 8f 89 36 bd 42 44 7d be 13 ec 1c be 92 7e 1a be
       -0.04456478 -0.2473307 -0.1532443 -0.15087345
000100 96 99 8d be ee 69 3d 3f d7 00 68 be e9 a2 9c be
       -0.2765624 0.7398976 -0.2265657 -0.3059304
000110 f1 4e 7f be ac da 8b 3e 11 2d f6 3c bb e9 1f 3e
       -0.24932458 0.2731527 0.030050786 0.15616505
000120 af cf 0c 3e 0b 98 23 be a1 7d 29 be d2 c7 9d 3e
       0.137511 -0.15975969 -0.1655183 0.30816513
000130 f3 88 a8 bd e0 a1 d6 bd cb c7 74 be d5 b2 5b be
       -0.08229246 -0.10480094 -0.2390434 -0.21454938
000140 e2 12 00 be cd c7 6d be bf 4c c2 bd 06 d5 09 bf
       -0.12507203 -0.23220749 -0.094872944 -0.5384067
000150 4c 43 85 be a0 6d 68 be e9 6d 04 bf 28 6e d9 be
       -0.26027906 -0.22698069 -0.5173021 -0.42466855
000160 d6 ac b3 3e 40 79 79 3e 2c 50 d5 be 09 b4 07 bf
       0.350928 0.2436266 -0.4166273 -0.53009087
000170 aa 67 b4 3d ed 90 80 be 2a 9b 71 be 3f fe ce bd
       0.08808835 -0.2511057 -0.23594347 -0.10107087
000180 5f 2b ab bd c9 71 09 3e a9 23 63 be 4d 14 b5 bd
       -0.08357882 0.13422312 -0.22181572 -0.08841763
000190 a6 8a 9a be 3f 0a 21 3d 0f da 50 bd f7 44 ab bd
       -0.30183905 0.039316412 -0.050989207 -0.083627634
0001a0 4c 30 26 be 18 4f 83 be 43 a9 f7 3f f9 0b e8 bd
       -0.16229361 -0.2564628 1.934853 -0.113304086
0001b0 49 1d bd be 4c 67 b0 be 67 14 b0 be 5a f2 c6 bd
       -0.36936405 -0.3445381 -0.34390566 -0.09714194
0001c0 53 cd a5 be 44 5d f2 bd 62 5e 88 be 40 4a af 3e
       -0.32383212 -0.11834195 -0.26634508 0.34236336
0001d0 96 6f 9b 3f b5 8f 2d 3e b2 c6 d7 be 15 97 38 be
       1.2143428 0.16949351 -0.4214378 -0.18026383
0001e0 8d 0c fc 3d ae a0 cd 3c 24 f1 c4 3d 83 14 95 bd
       0.12307081 0.025101032 0.096163064 -0.07279303
0001f0 bb d0 07 bf c2 7d 2f be 08 36 92 3e 86 1d 33 be
       -0.5305287 -0.17137817 0.28556848 -0.17491731
000200 5c 62 c2 3d 4d e6 03 3f c0 24 e3 be 63 c4 0f bf
       0.09491417 0.51523286 -0.44363976 -0.5615904
000210 e7 2c ee 3e ab 4d 15 3f 40 43 9f be f6 7b a5 be
       0.46518633 0.58321637 -0.31105995 -0.32321137
000220 cd c9 c9 be b0 1f 73 be eb 9e 29 bd f2 28 a2 be
       -0.39411774 -0.23742557 -0.04141132 -0.31671864
000230 33 44 cc 3e 6a 1f 1a be 38 2f 28 3d ba 3b 78 be
       0.39895782 -0.15051046 0.041060656 -0.24241534
000240 f2 9c 9b bc 8c 7a 27 be 4f dc 9f be 41 c5 1f 3e
       -0.018995736 -0.16355342 -0.3122277 0.1560259
000250 d6 f4 5d 3d c9 68 c8 be 89 cf 17 be 81 c9 b5 be
       0.054188572 -0.39142445 -0.14825262 -0.35505298
000260 4b b7 12 3f e4 2b c0 be c8 e0 fd be 71 f3 ee 3d
       0.5731093 -0.37533486 -0.49585557 0.116675265
000270 a8 35 a2 3d 4e 0d 41 be 4e 67 32 be 2c ef 0f be
       0.0792039 -0.18852732 -0.1742222 -0.1405608
000280 40 57 82 be 64 35 22 3f 3b bb cc 3e ce bf 90 bc
       -0.2545719 0.6336272 0.39986596 -0.017669585
000290 91 5a 00 3f af 59 a9 3e ee 7d 72 3d ce 00 a8 be
       0.50138193 0.33076236 0.059202127 -0.32813114
0002a0 77 28 9f 3e d7 c8 1e 3e dc 51 80 3e 9d 7f 4d be
       0.3108556 0.15506302 0.25062454 -0.20068212
0002b0 93 cd c4 be 69 87 90 3d 09 70 84 be 11 8a bc be
       -0.3843809 0.070570774 -0.25866726 -0.36824086
0002c0 e6 7f bc bd 49 97 85 3e 3b 64 ee be b4 e9 bd bb
       -0.09204082 0.26091984 -0.46560845 -0.005795682
0002d0 40 42 af 3e 36 80 7c be 8e 2f e1 be bb a1 eb 3e
       0.34230232 -0.24658284 -0.43981594 0.46021828
0002e0 92 6d 98 be cc 16 61 3e 30 53 42 3f 06 23 f6 be
       -0.29771096 0.21981353 0.75908184 -0.48073596
0002f0 ae 76 03 bf f5 d3 e3 be 13 e6 e3 bd 5a 87 a6 be
       -0.51352966 -0.44497648 -0.111278675 -0.3252514
000300 43 f0 10 be 60 94 d7 3d f0 19 f3 3d 00 c3 30 be
       -0.14154153 0.10526347 0.118701816 -0.17261887
000310 ba c8 a8 3e 74 fe be be ff 7e 02 bf 0c e0 f5 bd
       0.32965642 -0.37303507 -0.5097503 -0.12005624
000320 c2 64 97 be 5f e4 db be 8b a2 ab 3d 56 06 7e bd
       -0.2956906 -0.4294767 0.08380612 -0.06201776
000330 4d 97 96 3d a4 ed dd 3d 43 83 60 be 28 46 cd bd
       0.07353077 0.10836342 -0.21925072 -0.10023147
000340 0c d8 95 be 41 b8 6b 3a 45 22 f3 3c 67 f7 88 be
       -0.29266393 0.00089919945 0.029679427 -0.26751253
000350 d3 58 c2 be a5 fb 6f bd 96 c6 55 be 31 ef 0a bd
       -0.37958393 -0.058589596 -0.20876536 -0.033919517
000360 8c b7 46 be 4a d7 70 3e 3b 47 21 be 2b 0d fd bd
       -0.19405955 0.23519626 -0.15749829 -0.12356027
000370 11 9b 2f be 98 de b7 be ad de d8 be d0 5a 0d bf
       -0.17148997 -0.35912013 -0.42357388 -0.55216694
000380 9c d5 8e be 69 7f 88 3f d7 d8 ba 3b 48 5a d3 bb
       -0.27897346 1.0663882 0.005702119 -0.0064499713
000390 5e 43 ab 3e 4f af 46 be 17 80 83 be 6e 29 fd bb
       0.33449835 -0.19402812 -0.25683662 -0.007725886
0003a0 6a f2 f3 be 2e 9b c5 be db ae c4 bd 19 89 a7 be
       -0.47645885 -0.38594955 -0.096036635 -0.32721785
0003b0 3a f9 80 be 56 9b ee be 94 18 df bd 6d 02 b8 3e
       -0.25190145 -0.46602887 -0.1089336 0.3593935
0003c0 17 22 9c be 26 66 ad be 89 65 f4 3b 7d e4 eb be
       -0.30494758 -0.33866996 0.007458393 -0.4607276
0003d0 d7 73 67 3d f4 5f 88 3e 0c b7 ce 3d 63 93 a9 be
       0.056506958 0.26635706 0.10093507 -0.3312026
0003e0 50 ca 80 3e 29 f7 70 be ce a7 c1 be 8b 17 ee be
       0.25154352 -0.23531784 -0.37823337 -0.46502337
0003f0 64 1b c2 bd 85 8d 3e 3f 2a ef 8b be ff a7 9f be
       -0.094778806 0.7443469 -0.27330905 -0.31182858

linear2.weight f4 [3, 256]
000000 ea fd 31 3f d5 65 1d 3f 02 c4 4f be 7c 89 be be
       0.6952807 0.6148351 -0.20289615 -0.37214267
000010 44 f6 2e 3b e3 a3 3b 3d bf eb a1 bf e1 14 b3 bd
       0.0026697079 0.04581059 -1.2650069 -0.08744217
000020 15 f4 18 3f 8d 35 93 be e9 f9 c5 3e b3 7b 81 3c
       0.5974744 -0.28751794 0.3866723 0.015806055
000030 07 98 3a be ec 72 d9 3e 20 25 5c bd 3e 2d 95 be
       -0.18222056 0.4247049 -0.053746343 -0.2913608
000040 84 92 9e 3e ed 32 6d bf 04 c2 10 3d aa 98 62 3d
       0.30971158 -0.9265583 0.035341278 0.055321373
000050 dd 10 b6 bd aa 26 89 bd 6a 95 8e bb 03 ee 35 bf
       -0.08889935 -0.06696828 -0.0043513076 -0.710663
000060 96 66 cd 3e b5 c0 e7 3e b3 a5 00 3c fe 6e 7d 3e
       0.4011733 0.4526421 0.007852006 0.24749371
000070 a4 ef 05 3c 57 5e a9 3e ed 7d 30 bc 7f 6c 0a bf
       0.008174811 0.33079788 -0.010772211 -0.540718
000080 a5 32 c4 be 71 b6 28 3e 29 5a 2e be 67 23 e7 be
       -0.3831989 0.16475846 -0.17026581 -0.45144197
000090 64 06 6a 3b 35 1c 24 bf 78 c8 7c be d4 c7 ff 3e
       0.0035709376 -0.6410554 -0.24685848 0.49957144
0000a0 ed f6 d8 3e a7 8c 14 3f a3 ea b1 3e fd 46 ba bb
       0.4237589 0.5802712 0.34749326 -0.005684732
0000b0 55 b7 b1 3e de 37 18 bf 8c 66 fc 3c ae 1d 30 be
       0.34710184 -0.59460247 0.030810617 -0.17198822
0000c0 ee 85 1e 3f fa 24 94 3c a4 d8 92 bd 9e 6d 24 bd
       0.6192311 0.018084038 -0.07170227 -0.0401436
0000d0 69 64 e1 3e 3f 3d 1c bf 30 fa 1b bf 8c ac 65 3e
       0.4402192 -0.61030954 -0.6092863 0.22429103
0000e0 3d 9e 25 bd f4 af 19 be 25 79 a0 bd ce c7 e2 3e
       -0.04043411 -0.15008527 -0.078356065 0.44293064
0000f0 d6 51 bc be fd fa 21 be 21 98 8e be 48 a3 83 b8
       -0.36781186 -0.158184 -0.2785044 -6.27698e-05
000100 58 cb 04 be 43 9f b1 3e 37 86 af bb fd 4d 92 be
       -0.12968194 0.3469182 -0.005356576 -0.28575125
000110 b0 43 42 bd 8c 42 d5 3e 1d a3 54 3e a4 2b cc bd
       -0.047427833 0.41652334 0.20765348 -0.09969261
000120 8f 83 90 3e 67 a4 cc bc 4b a6 a8 be af 61 e0 3e
       0.2822537 -0.024980737 -0.3293937 0.43824527
000130 ed d3 b2 3e ee 46 1c bd 88 a6 ee be ed bd 82 bd
       0.34927312 -0.03815358 -0.46611428 -0.06383882
000140 ac 52 07 bf c3 d0 53 bc 81 c8 c8 be 39 1b 94 bd
       -0.5286052 -0.012928191 -0.39215472 -0.07231755
000150 eb 50 fb be 6c 49 67 bf f4 ff 01 be b6 4a a4 bd
       -0.49085173 -0.9034641 -0.12695295 -0.080220625
000160 fa 43 12 3f 8d c9 41 3d af d5 46 be cf a2 82 bc
       0.57134974 0.047311354 -0.19417451 -0.015946774
000170 38 2f d8 3d 2f ec 30 bf 77 d9 43 bc 9e 8c 00 bd
       0.10555881 -0.6911039 -0.011953703 -0.031384103
000180 5e 7d 15 3f 6b 97 9f 3e bf 09 fd 3b 51 36 60 be
       0.5839442 0.3117021 0.007722109 -0.2189572
000190 b2 d1 c4 3c 67 ed ea be 8a 26 39 bf 8b f5 34 bd
       0.024025772 -0.4588425 -0.7232443 -0.04417948
0001a0 f0 8f 69 bf 19 2e 19 3d 78 b8 25 3f ef 7a fa be
       -0.91235256 0.037397478 0.647346 -0.48921916
0001b0 dd 1e 06 bf d2 cb b1 be 33 75 c0 be 79 0e 33 be
       -0.52390844 -0.34725815 -0.37589416 -0.1748599
0001c0 b6 97 b6 3c 1a 43 ad 3e eb 38 7d 3c e0 4a a0 3e
       0.022289138 0.33840257 0.015455465 0.31307125
0001d0 bc df dc 3e f4 e7 d0 3e 4b 31 1d be 06 54 2d 3d
       0.43139446 0.40801966 -0.15350835 0.04231646
0001e0 62 fb 21 3e 0a 7f 4c bf 91 e3 f0 3e 01 56 6b 3e
       0.15818551 -0.79881346 0.4704862 0.22982027
0001f0 11 f2 5a be 70 23 5c be ff d5 3a 3e 69 12 42 be
       -0.21381404 -0.21497893 0.18245696 -0.18952335
000200 58 3c 0d 3f 71 b2 94 3e 0f 3b 49 be cc db 06 3c
       0.551702 0.2904239 -0.19651435 0.008231115
000210 33 a3 15 3f 51 90 d0 3e 67 d4 a4 be 38 ed ae be
       0.5845215 0.40735105 -0.321933 -0.3416536
000220 51 30 bc be 50 ec a3 3d 89 c6 aa 3e a6 7d 55 3d
       -0.36755612 0.080040574 0.33354595 0.05212178
000230 65 24 ba 3e 33 f9 b3 bd 66 60 2e bf 12 99 18 bd
       0.36355892 -0.08787765 -0.6811584 -0.037255354
000240 1f 89 6b 3e 18 f0 1d bf 98 95 9a be 51 7f 5a 3f
       0.23001526 -0.6169448 -0.30192256 0.8535052
000250 b3 19 63 be ff 16 23 bd fa 1f 4b 3c 55 bd 89 be
       -0.22177772 -0.039816853 0.0123977605 -0.2690226
000260 07 c0 fa 3e e4 3d 47 be 3b 06 4e 3b 38 59 21 3f
       0.4897463 -0.19457203 0.003143682 0.6302676
000270 3d e2 1a 3e 9f 72 cf bd e7 88 fe be a9 ba b4 3e
       0.15125366 -0.10129284 -0.49713823 0.3529866
000280 00 23 4b be d0 35 ec 3e 10 04 fd 3e 54 95 9b bd
       -0.1983757 0.46134806 0.49417162 -0.075968415
000290 81 db f6 3e 1d c8 02 3f 5d 2c 97 3e ac 25 f4 be
       0.48214343 0.510866 0.29526034 -0.4768499
0002a0 2e ec 1a 3f 48 f7 38 3e d6 ab 25 3f 94 d5 4d be
       0.6051663 0.1806308 0.64715326 -0.20101005
0002b0 fe e5 74 3b ca ea 63 be 36 99 76 be 6d 73 39 be
       0.0037368531 -0.22257534 -0.24081883 -0.18110438
0002c0 4c 88 dc be 97 da e8 3e b6 8e 29 3d e2 7a 2a 3d
       -0.43072736 0.4547927 0.041395865 0.041621096
0002d0 ba 5e c5 3e f9 13 de be 14 9b 08 bc 81 ba 10 3f
       0.38548833 -0.43374613 -0.008337755 0.5653458
0002e0 95 d2 df be cd ba 86 3e 66 d4 d0 3e f3 50 1f bf
       -0.4371535 0.26314393 0.40787047 -0.62232894
0002f0 9d 87 01 bc 88 9a f4 ba c7 a7 f9 bd 5e 4b 6d 3d
       -0.007905868 -0.0018661777 -0.12190204 0.057933204
000300 1c 5a 44 be 3b 47 5a 3d 2b cd fe be b1 57 ef bd
       -0.19174999 0.053290587 -0.49765906 -0.11686648
000310 82 38 df 3e fa ef 3b be 9f 1b 67 be 22 99 73 bf
       0.435978 -0.18353263 -0.2256913 -0.9515554
000320 07 ab 93 ba 2d 28 27 be 20 b7 09 3f a1 a7 8e bd
       -0.001126618 -0.1632392 0.5379505 -0.069655664
000330 1c e4 ba be 89 c7 58 3e de cd d8 be 47 17 f5 be
       -0.3650216 0.21169867 -0.42344564 -0.47869322
000340 d2 c8 58 bd ea 94 71 bf 1e 97 6a bd a8 6f d3 bd
       -0.052925892 -0.9436785 -0.057273023 -0.10324031
000350 49 91 9c be 56 2e f0 3d 29 e8 81 be fa 25 ae 3e
       -0.30579594 0.11727588 -0.25372437 0.3401335
000360 94 c5 fa be bb b4 00 3f 0a bd 8c 3c ca 02 1a bc
       -0.48978865 0.5027577 0.017179985 -0.009400079
000370 86 4c 98 bc c0 b4 29 bd 29 f2 c5 3c 3a 62 97 be
       -0.018591177 -0.041432142 0.024163323 -0.29567128
000380 9d 08 1d bc 0c c1 0f 3f a2 90 6b 3d 58 19 bb 3b
       -0.009584573 0.5615394 0.05751098 0.0057098083
000390 ab 6f fc 3e c2 89 6c be 07 d2 05 bf ab c6 8d bc
       0.49303946 -0.23099425 -0.522736 -0.017306646
0003a0 58 13 04 be 81 85 05 bd ae dd df bd 0d 7d 58 bc
       -0.12898004 -0.032598022 -0.10930954 -0.013213408
0003b0 33 54 3a be 3a b9 6b 3c c1 f4 06 3d 40 14 31 3e
       -0.18196182 0.014387423 0.03294826 0.17292881
0003c0 90 69 f4 be 63 72 bc 3d c7 2f e6 3d 17 24 35 be
       -0.47736788 0.09201505 0.112395816 -0.17689548
0003d0 05 37 d4 be 8e 75 9d 3e bc de 8d be de 4e 27 bd
       -0.41448227 0.3075375 -0.27708995 -0.040846698
0003e0 78 ea 74 3e 00 c4 b0 b8 d2 6f 29 be 75 19 10 be
       0.23917568 -8.428842e-05 -0.16546562 -0.14072211
0003f0 24 f5 1e bf 96 9d 10 3f e9 86 9d bc da e3 a0 bd
       -0.62092805 0.5649046 -0.01922937 -0.07855959

linear2.bias f4 [3]
000000 61 7f 03 3f 4d 91 a6 3d 7c 47 c5 3d
       0.5136624 0.08133183 0.09632775
